actor_checkpoint.pth (torch_old, 169460 bytes, 6 tensors)

fc1.weight f4 [256, 33]
000000 bd 5c 56 bb 8e 72 c9 3c 72 aa 28 be db 71 d1 bd
       -0.0032709085 0.024590757 -0.1647127 -0.10226794
000010 fb 22 99 bd 6a ea a0 bd 23 ae cf bd 42 4b 90 3e
       -0.07477375 -0.07857211 -0.10140636 0.28182417
000020 f8 02 58 3e bf 54 08 3d 0c be de bd 4d 96 2e be
       0.21094882 0.033283945 -0.10876092 -0.17049523
000030 29 ef 5d be a2 23 a1 bc 91 b5 2d bd e3 6a c3 3d
       -0.21673264 -0.019670311 -0.042409483 0.095418714
000040 8d 28 e8 3a 00 a6 46 3d 8f ab 10 be 6c df 12 3c
       0.001771228 0.048498154 -0.14127944 0.008964401
000050 ba 2e a2 3c 2b e0 d8 3d b6 36 5a 3e d5 b2 d2 3d
       0.019797672 0.10589632 0.21309933 0.10288016
000060 f0 6e d3 3d 9c fe c9 bd dc b4 c8 3d fd 62 11 be
       0.10323894 -0.09863016 0.09800121 -0.14197917
000070 97 1e 83 be 2c 83 34 bd 47 ec b2 bd 4e 03 1a 3e
       -0.25609276 -0.044070408 -0.087364726 0.15040323
000080 92 d6 3e be 23 2a bf bd c4 9a 64 be d6 a7 35 be
       -0.1863654 -0.09334209 -0.22324663 -0.17739806
000090 14 e9 c7 bd d0 db f2 3d c4 14 08 3d 01 e7 83 3d
       -0.09761253 0.11858332 0.03322293 0.06440545
0000a0 a0 a3 cb 3d ab 20 06 3e 91 52 99 bd d1 df 80 be
       0.09943318 0.130984 -0.074864514 -0.25170758
0000b0 a2 54 12 bc a2 6b 43 be 9f b2 b9 3d d9 a9 1d 3e
       -0.008931311 -0.19084027 0.090672724 0.15396823
0000c0 5b c8 8b bd 6b 38 26 bd c4 7b 91 3c f8 f8 28 bd
       -0.06825324 -0.040581148 0.017759211 -0.04125306
0000d0 c4 cb d9 3d 09 bb 36 3c 38 db 35 3d c7 e0 ba bd
       0.10634568 0.011152991 0.044398516 -0.09124904
0000e0 0f d6 67 3c fc 62 0f 3e 2d 8c 86 be 95 0c e3 bd
       0.014150157 0.14002603 -0.2627882 -0.11086384
0000f0 3f b0 a4 3d 5a 93 90 3d 22 2e d3 bd c9 a8 50 3d
       0.08041429 0.07059355 -0.103115335 0.050942216
000100 f0 b6 c3 3d 00 c1 f2 3e 55 e5 b4 bc 5c 20 30 3e
       0.09556377 0.47412872 -0.02208201 0.17199844
000110 5e 9d 9e 3d 72 d4 73 3d 86 1f f8 bd 98 fe bf bd
       0.07744859 0.059528776 -0.121153876 -0.09374732
000120 c6 e3 6c 3d 8a 35 11 3e 03 64 ab 3e 36 b9 2c 3e
       0.05783441 0.1418058 0.3347474 0.16867527
000130 0c 00 5c 3e 47 0c e6 bd 5b 70 db 3d 9b 1f e4 bd
       0.21484393 -0.112328105 0.107147895 -0.11138841
000140 8b 1d 77 be a6 83 e9 3c c5 71 b6 3d d5 ed 0f be
       -0.24132363 0.028505158 0.089084186 -0.1405557
000150 b9 e4 73 bd 5d 70 8d 3d 3b 4b c8 3c 5f 7e f1 3d
       -0.0595443 0.06906197 0.024449935 0.117916815
000160 41 67 94 bc 5d 45 9e 3c 0e 1a 4e be 5d f8 4d 3e
       -0.018115642 0.019320184 -0.20127127 0.20114274
000170 59 d9 40 3e f4 45 13 3d 1a d1 61 be 82 44 e7 bd
       0.18832912 0.035955384 -0.22052422 -0.11292364
000180 71 ad ed 3d 8c 3c 15 3d 27 b9 4d 3e 0f 5c 80 bd
       0.11605347 0.036434695 0.20090161 -0.06267559
000190 51 c8 5a 3e 4a 05 fc 3d d0 0e c1 bd 6d 96 5e bd
       0.21365477 0.12305696 -0.094266534 -0.054342676
0001a0 a6 e8 9e bd 2f af 60 b9 cd 9d c3 bd b5 40 83 be
       -0.07759218 -0.00021427566 -0.095515825 -0.25635305
0001b0 88 8b b0 bd d7 f6 59 3c 0d 2a 66 bc 8e d4 d3 3d
       -0.086203635 0.01330348 -0.014048112 0.10343276
0001c0 79 13 de 3d 94 58 a4 bc 70 99 84 3e b5 65 37 be
       0.10843558 -0.020061769 0.25898314 -0.17909892
0001d0 2d 7d 90 3d e6 ef e2 3d a6 d3 62 bd 9e a7 cf 3d
       0.070551254 0.11080913 -0.055377625 0.10139392
0001e0 21 97 fc bd f0 ca f7 bd c9 ab 2f be 3b 26 91 3d
       -0.12333513 -0.12099254 -0.17155375 0.0708737
0001f0 dc 8d dc 3c fc 16 97 be cd 77 d0 bd ce b3 70 bd
       0.026923113 -0.29509723 -0.101791 -0.058765225
000200 5e 70 79 bd f4 fa ac bd ac ab 17 bd 9a 9e 33 bf
       -0.060898177 -0.08446303 -0.037028953 -0.7016388
000210 b7 43 ff bd 22 ad 94 bd 9f 4b 9d 3e e8 97 10 bc
       -0.124640875 -0.07259585 0.30721757 -0.00882528
000220 82 c4 0b 3c 6e dc a3 bc 2b 8c 00 bc ba ef 53 be
       0.008530738 -0.02000257 -0.007845919 -0.20696917
000230 c5 5f a1 bd 1a ce 7f 3c b0 9b 77 3d e3 9d a4 bd
       -0.07879595 0.015613103 0.06045121 -0.08037927
000240 de a9 c3 3d dd 36 66 be 35 26 03 3e 05 ff cd 3d
       0.09553884 -0.22481866 0.12807544 0.10058407
000250 7f 21 71 bd 64 39 6c bc ae 84 b0 bd 91 c3 e3 bd
       -0.058869835 -0.01441798 -0.08619057 -0.11121286
000260 0f d9 9d bc 82 d8 8c bc 33 e4 50 3e 05 2c 9c be
       -0.01926854 -0.017193083 0.20399551 -0.30502334
000270 89 db a8 3d 53 10 70 3d 4f f9 0c bd b7 65 8a bd
       0.08244998 0.058609318 -0.034417447 -0.06757682
000280 80 5c ab bd 28 ff 0b bd a0 09 23 be 9e e9 19 be
       -0.08367252 -0.034178883 -0.1592164 -0.15030524
000290 11 2e 1f be 1a f0 27 bd 85 c1 96 bd bd f9 8a 3d
       -0.15544917 -0.041000463 -0.0736113 0.06785915
0002a0 4a ad 86 be ba 3e 07 3c e0 d5 13 3d 1c 5f 1f be
       -0.26304084 0.008254701 0.03609264 -0.15563625
0002b0 9c 10 16 3e a9 9b f8 3d 48 8c f9 bd f8 7f 3b 3e
       0.14654773 0.12139065 -0.1218496 0.18310535
0002c0 3c c1 b7 3c dc d0 a0 bd 2c 5d 93 bc 04 d1 7a be
       0.022431009 -0.07852337 -0.017988764 -0.24493796
0002d0 9a 5c 92 3e 90 84 fe 3c ed f5 86 bc f0 9f 57 b7
       0.28586274 0.03106907 -0.016474688 -1.2852237e-05
0002e0 39 f5 1b 3d 6a 9e 3b bd a8 7b a3 3c 5a 61 cf bc
       0.03807566 -0.045805372 0.019956425 -0.025314976
0002f0 b1 47 20 be ec 3d 0b bd bc e5 15 3e 6e 04 ac 3d
       -0.15652348 -0.0339946 0.14638418 0.083992824
000300 75 cd b7 bc f2 fe 9c bd 1a 51 fb bd a7 e3 48 be
       -0.022436837 -0.076658145 -0.12271328 -0.19618092
000310 af bd cf bd 41 56 2f 3e ee e7 18 be fb 73 18 be
       -0.10143601 0.17122747 -0.14932224 -0.14887993
000320 23 28 19 3b 17 a2 61 3e ec 34 cd bd ec 1e b0 bd
       0.002336987 0.22034489 -0.1001986 -0.08599648
000330 0c 22 f6 ba 0d 99 91 3d 5f 50 26 be f0 df 09 3e
       -0.0018778457 0.0710927 -0.16241597 0.13464332
000340 d6 7a 57 bb e9 67 f7 bd 5c 33 9d bc e0 16 37 3c
       -0.0032879612 -0.12080366 -0.01918953 0.011174887
000350 fb 14 22 3c c0 8f 0a 3d 31 a2 19 3d 95 60 ac bd
       0.009892697 0.033828497 0.037508193 -0.08416859
000360 d2 87 14 be 65 70 9a bd f0 6f 87 3e aa 37 a7 bd
       -0.14504936 -0.07540969 0.2645259 -0.08164914
000370 8f 04 0b bd 37 c7 1a 3e 11 45 fc 3d ae 33 38 3a
       -0.033939894 0.15115057 0.12317861 0.0007026744
000380 26 a9 02 be 4d 88 c8 3d 81 e3 5e be c8 66 4a bd
       -0.12759838 0.09791622 -0.21766473 -0.049414426
000390 4a 8a 8f bd e0 2d d3 bc 04 33 ab bd 65 8b 84 3e
       -0.070087984 -0.02577871 -0.0835934 0.258876
0003a0 4d fd 12 3e f3 e7 22 3e 8f e1 db bc 3f b7 0c be
       0.14354439 0.15908794 -0.026840953 -0.13741778
0003b0 5b a9 a0 bd e9 4d 05 be 23 2c cf bd fe 82 0b 3e
       -0.07844802 -0.13018002 -0.1011584 0.13624188
0003c0 68 78 73 3d 23 73 2c 3e a4 1c 7b 3c 15 fa 3f 3e
       0.059441 0.16840796 0.015326653 0.18747742
0003d0 cd 26 53 3e 6a b4 8f bd a1 df 0e 3e 11 60 5e be
       0.2062027 -0.07016833 0.13952495 -0.21716334
0003e0 85 79 86 bc 79 7a 2a be 0d f9 a6 bd 43 e1 61 bd
       -0.016415367 -0.16648282 -0.081529714 -0.055146467
0003f0 ac 02 d2 3d cf b7 c6 3d 32 24 6b 3d d3 f5 a1 bd
       0.10254416 0.097030275 0.057407565 -0.079082154

fc1.bias f4 [256]
000000 3e 09 8d 3d 52 a3 1f 3e 56 f7 89 bc fe 42 4f 3e
       0.068865284 0.15589646 -0.016841572 0.20240399
000010 0f fe d6 bb d6 bf 85 be 0e 1e 32 be 3c 7b 59 be
       -0.006561048 -0.26122922 -0.17394277 -0.21238416
000020 10 e7 ad bd b4 9e 0d 3e fb 0a c3 bd 44 d1 c1 3d
       -0.08491337 0.13830072 -0.09523579 0.094637424
000030 c5 e0 9f 3d 32 8d d8 bc 50 4a 52 3d c0 dd be 3c
       0.07806543 -0.026434515 0.0513404 0.023299098
000040 0b f4 ea bd af b5 94 bd 7d bf 2d 3e 90 3a a7 bd
       -0.11472329 -0.07261216 0.16967578 -0.08165467
000050 38 6b 92 3c 5e 6a c9 3d 17 d2 83 bc d7 73 0c bd
       0.017873392 0.09834741 -0.01609139 -0.03429016
000060 1c f8 99 3d 46 71 be bd 80 a7 32 3c 54 98 cc 3c
       0.07518026 -0.09298949 0.010904193 0.02497498
000070 d8 e0 d2 3d ca 77 5a 3e 9e a3 56 bd 3f 3f f6 bd
       0.10296792 0.21334758 -0.05240213 -0.12023782
000080 de b0 86 be d6 9d 00 be ee cd 9f 3d 6e 29 37 3c
       -0.26306814 -0.1256021 0.0780295 0.011179311
000090 c3 56 b9 3d 59 51 02 3d 00 8c e0 bd bc 83 e1 3d
       0.090497516 0.03181586 -0.10964203 0.110114545
0000a0 91 b9 c5 bd e8 4e e6 bd 03 02 4d 3e 63 3c 2a be
       -0.096545346 -0.11245519 0.20020299 -0.16624598
0000b0 b0 7c de bd 68 94 53 bd a8 87 6f 3e e7 a7 69 3d
       -0.10863626 -0.051655203 0.23391593 0.05704489
0000c0 58 3e 44 3e 53 0c 28 bd de 7b 1a bd e4 3d bc 3d
       0.19164407 -0.04102738 -0.037715785 0.09191492
0000d0 f0 23 02 be bb 26 e3 bd 11 8c 02 be 31 69 e4 3d
       -0.12709022 -0.110913716 -0.12748744 0.11152876
0000e0 39 d5 0e bd 5f bd 55 3d 4b 67 d3 3d cc d5 91 3c
       -0.034871314 0.05218255 0.10322436 0.017802142
0000f0 86 1e 57 be bc eb b3 3e 81 6d a3 bd ec 42 69 bd
       -0.21007738 0.3514079 -0.079798706 -0.056948587
000100 f6 40 65 3b c7 95 62 be d3 fd 89 3d e3 f8 9f 3c
       0.0034981347 -0.22127448 0.06737866 0.019527858
000110 bb 22 92 bc 8f 15 85 3d c1 b2 2d 3e 96 85 7a 3d
       -0.017838826 0.064982526 0.1696272 0.061162554
000120 24 d1 08 bd 04 10 05 be bb b2 2c bd d1 73 86 3e
       -0.033402577 -0.1299439 -0.04216264 0.26260236
000130 30 2f fd 3d ee 87 4f bc 28 63 55 3e 00 1d df bd
       0.12362516 -0.0126666855 0.20838606 -0.10894203
000140 76 de e2 bc 78 10 43 3e 78 35 d1 3c 8b be 2a 3e
       -0.027693968 0.19049251 0.025538191 0.16674249
000150 5a 81 89 3e ad 96 2b be 79 5b 7c bc 8e 32 97 3b
       0.268565 -0.16756697 -0.015402668 0.004614181
000160 b9 a1 b0 3d 12 19 35 3e 0c 92 04 3e 75 3b cd 3d
       0.08624596 0.17685345 0.12946337 0.10021106
000170 2c 8b 80 3d 98 12 04 be 65 90 70 be 67 db 63 3d
       0.06276545 -0.12897718 -0.23492582 0.05562916
000180 66 5d ca 3d 4f bf bd bc f6 68 d0 3d f1 02 d6 3d
       0.098810956 -0.023162512 0.1017627 0.1044978
000190 1a 73 15 3e f3 53 f1 bc 6f fd 10 3e 96 83 48 3c
       0.14594689 -0.029458975 0.14159177 0.012238404
0001a0 2b ee e9 bc c4 e2 27 3e e8 6e 0a be cd 92 13 3e
       -0.02855595 0.16395098 -0.1351887 0.14411469
0001b0 09 1f fa bd 5e 66 5b bc 50 89 ae 3e ae b2 b1 3e
       -0.12212951 -0.013391105 0.34089136 0.34706634
0001c0 d1 7c 8e bd 49 a2 05 3e 01 9d b3 bb 61 44 00 be
       -0.069574006 0.13050188 -0.005481363 -0.12526084
0001d0 a4 39 ea 3c b0 f9 46 be a0 bb 09 be 8b b0 14 be
       0.028591938 -0.19431186 -0.1345048 -0.14520471
0001e0 e8 fa 40 3e fc 43 0b 3e 31 b5 f2 3c ce 5d da 3d
       0.18845713 0.13600153 0.029627414 0.10662423
0001f0 d8 d7 69 3b 44 35 a6 3d 88 35 e2 3d fc 91 a9 3d
       0.0035681631 0.08115628 0.110453665 0.082797974
000200 bb 09 91 3c ea 1b 5a 3e ae 42 0d be f7 f2 94 bd
       0.017704835 0.21299711 -0.13794968 -0.07272904
000210 0a 66 62 3c 53 a7 ef 3c 81 cb 28 3c 8b 4d 17 bd
       0.013818273 0.029254591 0.010302425 -0.036939185
000220 49 e8 92 bd f4 6e 01 3e cd c7 33 be de a6 8a 3c
       -0.07173211 0.12639982 -0.17556687 0.016925272
000230 e5 92 c4 3d 88 bd 92 bd c3 1d ae bd 9a 91 cd bd
       0.095983304 -0.071650565 -0.0850177 -0.10037537
000240 0e 41 34 3e e2 97 5a bc 22 e5 c5 bd cb 8e 0f 3d
       0.17602941 -0.013341876 -0.09662844 0.035048287
000250 96 24 05 3e 54 d8 8e 3e e0 03 e6 3d 2c 2d 9a bd
       0.13002238 0.2789942 0.11231208 -0.07528147
000260 0f f2 84 3d 84 ac 0a 3d fc 24 71 3e 7b ba 24 3d
       0.064914815 0.03385593 0.23549265 0.040216904
000270 b3 3e f7 3d ca 52 4d 3d 68 d0 a5 3d b4 b3 0a be
       0.12072506 0.050127782 0.08096391 -0.13545114
000280 b7 95 71 3e 9d 46 c7 bd 30 4c 2b bd fd d4 40 be
       0.23592268 -0.09730265 -0.041820705 -0.18831249
000290 3c 60 bb 3d 1b cb ae 39 5e a5 d2 3d 47 82 8b 3d
       0.091492146 0.00033339192 0.102854475 0.06811958
0002a0 83 7f 7d 3c 97 7f 1d 3e 00 35 70 3d c0 d2 37 3e
       0.015472296 0.15380703 0.058644295 0.17951488
0002b0 a0 e3 3b 3e d3 92 4a 3e 4b b8 d7 3d c7 c8 79 3d
       0.18348551 0.19782571 0.10533198 0.06098249
0002c0 62 c2 66 3e 29 f3 c7 bd 27 cc 2c 3e 85 09 04 be
       0.22535089 -0.09763176 0.16874753 -0.12894256
0002d0 75 0e b0 bd 5f 85 9b 3d 5d 67 19 bd eb dc a2 3b
       -0.085965075 0.07593798 -0.03745209 0.004970183
0002e0 98 8f 6f 3c 99 43 ff bc 02 11 2a 3d c8 fb d4 bd
       0.014621638 -0.031160163 0.041520126 -0.10399586
0002f0 8e 4c 3a 3d 8f 01 4b 3e a2 62 54 bd 59 4d 34 3e
       0.045483164 0.19824813 -0.051851876 0.17607631
000300 b2 4f 7b bc 30 03 46 3e fe e1 03 3e 11 19 1b 3b
       -0.015338825 0.19337153 0.12879178 0.0023666064
000310 5d a2 2f bc ba cf 13 be bd f3 28 bd fe 77 78 bd
       -0.010719863 -0.1443471 -0.041248072 -0.06066131
000320 f1 05 8d bd 6b 1a b5 3e 96 b2 af 3d 18 3f 97 bd
       -0.06885899 0.35371718 0.085789844 -0.07385081
000330 ca e6 18 3e eb 12 af 3d 1a ad 17 3e 00 5b 6f 3c
       0.14931789 0.0854853 0.14812127 0.014609098
000340 54 e9 4b be 30 0a 6b bc ba 2f bc 3d ae 13 6b 3e
       -0.19913226 -0.014345691 0.091887906 0.22956726
000350 a4 64 68 3c ab 10 03 3d ec f4 de 3c fe 7a f7 3c
       0.014184151 0.031998318 0.027216397 0.030210014
000360 1e 45 ba 3c 82 1e 83 3d b5 bc cb 3d 11 c2 0b 3e
       0.022738036 0.06402303 0.099481024 0.13648249
000370 bc 41 12 3d 46 3b d7 bd 4e ef 51 be e2 5f 3b be
       0.03570722 -0.105093524 -0.20501444 -0.18298295
000380 77 43 eb 3d 8e 5c 83 3b 1a 64 a0 be 6b 42 07 3e
       0.11487477 0.004008836 -0.3132637 0.1320893
000390 a8 8e f5 bd d7 8f ee 3c 79 39 87 3c ad 43 0e 3d
       -0.119901 0.029121323 0.016506897 0.03473251
0003a0 7f c1 05 be e7 35 1e be e1 09 1d 3d 6a e9 96 bb
       -0.13062094 -0.1545025 0.0383395 -0.004605462
0003b0 07 53 a8 bd 77 bd 73 3d 8d 12 e7 3d 44 f6 ed bd
       -0.08218961 0.05950686 0.11282835 -0.11619237
0003c0 84 8b 10 3e 34 05 66 3d a2 7e 26 3e 96 d4 6f 3d
       0.14115721 0.056157306 0.16259244 0.058552347
0003d0 e0 78 24 3e 8c f4 26 3e 30 ab e8 3c d0 f3 fa 3d
       0.16061735 0.16304225 0.028401941 0.12253535
0003e0 e8 0d 3b 3d 21 56 3a bc 19 8d a7 3d 86 16 24 3e
       0.04566756 -0.011373074 0.08181209 0.16024217
0003f0 ef 16 4a 3e 08 8d aa 3d 13 f4 13 3e 78 db 3e 3e
       0.19735311 0.08327681 0.14448576 0.18638408

fc2.weight f4 [128, 256]
000000 02 2d a8 bc f5 59 36 3d 6d fe b1 3c da d2 79 bd
       -0.020529274 0.044519383 0.021727765 -0.0609921
000010 4e 67 79 3d d4 e8 85 bd c0 b7 63 bd 4f 54 a7 3c
       0.060889535 -0.06538549 -0.05559516 0.020425944
000020 39 d7 d2 3d 0a e0 6d 3b f1 96 5b bd ce ab 5d 3b
       0.10294957 0.0036296868 -0.053610746 0.0033824327
000030 36 bc 8b 3d 21 55 0e bc 84 0a 62 3b b6 2f 90 3d
       0.06823008 -0.0086872885 0.003449113 0.0704035
000040 e0 8e 19 3e c9 04 99 bd 67 0d 88 bd b5 72 a0 bc
       0.14995909 -0.07471616 -0.06643181 -0.019585947
000050 65 0a 99 3d 8c 1c 57 bd ae 2b ab 3d a8 08 72 bd
       0.07472686 -0.05251746 0.083579406 -0.059090286
000060 bd 9e 1d bd ed 46 f2 3d 93 96 d5 bd 06 85 4f 3e
       -0.038481463 0.11829934 -0.104291104 0.20265588
000070 29 93 c0 3d 30 29 1d bd 18 68 32 3e a7 d7 21 3d
       0.094030686 -0.038369358 0.17422521 0.039512303
000080 88 d5 9d bd 6f 4b c9 bc a7 cc 82 3d f4 ff c0 3c
       -0.077067435 -0.024572102 0.063866906 0.023559548
000090 d9 5f b5 3c af 65 f6 3d 58 96 35 3c 9d b0 94 3d
       0.02214043 0.12031113 0.011083208 0.07260249
0000a0 42 12 11 bd fe 40 db bd 8d 1a 84 bd 14 8d 7e 38
       -0.035417803 -0.10705756 -0.06450377 6.068971e-05
0000b0 e5 c9 8b bd c5 20 c7 bc 96 b3 f5 3c 7f 37 2c 3d
       -0.06825618 -0.024307618 0.02999286 0.042045113
0000c0 0c d4 59 3c b9 a2 09 bd dd 94 b9 bd ee 8e 53 3d
       0.013295185 -0.03360245 -0.090615965 0.05164998
0000d0 0d d7 48 3d 77 60 37 bd d6 58 5a 3d 0c f4 1d 3e
       0.049033213 -0.04476973 0.053307377 0.15425128
0000e0 8b ca cf bb 0f 68 3a 3d 3b 82 17 3e 44 4e 3b be
       -0.0063412837 0.045509394 0.14795773 -0.18291575
0000f0 41 2c d8 3d 4d 22 1a 3b 4e cb ea 3c 36 56 35 be
       0.10555316 0.002351898 0.028661396 -0.17708668
000100 e5 ff f6 3c 94 42 a5 3b 7a 80 e3 3d a6 0f aa bd
       0.030151317 0.005043337 0.11108489 -0.08303766
000110 ff 4a 28 bc a8 16 bc 3a ef fe f4 3d 46 02 08 bd
       -0.010271787 0.0014350014 0.11962687 -0.033205293
000120 dc 42 f0 3d 71 82 72 bd 0d ce ee 3d 10 92 4d bd
       0.117315024 -0.05920643 0.11660395 -0.050188124
000130 1a 98 22 3d 7d 29 15 3d 92 f5 e1 bd 86 1c 7d bd
       0.039695837 0.03641652 -0.11033167 -0.06179478
000140 e1 41 b0 bc f7 57 f3 3d 3d 15 19 3c a0 bd 87 bd
       -0.021515789 0.11882012 0.0093434425 -0.06627965
000150 9f 45 3b be 35 86 58 bd 1f 98 a7 bd 06 b8 c7 3c
       -0.18288277 -0.052862365 -0.08183312 0.024379741
000160 9a 89 1a bc 27 3b 01 be f9 87 df bc 8c 32 02 be
       -0.009432221 -0.12620221 -0.027286517 -0.12714595
000170 27 20 06 3d 71 91 98 bc d8 20 9d 3b 4d f1 bb 3d
       0.032745507 -0.01862404 0.004795175 0.09176884
000180 4d 53 62 3e 36 4f 03 bd 28 dc 74 3d fb 41 44 3d
       0.22102089 -0.032057963 0.05978027 0.047914486
000190 83 74 77 3d 37 97 1a 3e a7 a8 4d 3d fa 08 36 3d
       0.06041385 0.15096746 0.050209668 0.044442154
0001a0 2a 56 cd bb bf 81 25 3d bf cc 33 3d d5 ae b1 3d
       -0.006266375 0.04040694 0.043896433 0.08675925
0001b0 d3 ab d0 bd be c0 50 3d 90 f3 10 bd db c0 06 bd
       -0.10189023 0.050965063 -0.03538853 -0.032898765
0001c0 80 88 56 be 0c 9c 2e 3d a3 e2 b6 bd 0d a5 22 be
       -0.20950508 0.042629287 -0.08929946 -0.15883274
0001d0 f7 d6 46 bd a4 d3 93 3d c7 12 a8 3d 5d 8c 0c 3e
       -0.04854485 0.072181016 0.082067065 0.1372542
0001e0 47 3c a5 3c b7 45 cc bd 8d 20 ac 3d 95 cc ae 3c
       0.020170344 -0.099742346 0.08404646 0.021337787
0001f0 50 7b f9 3d 86 c8 e7 bd db 68 31 3c a6 da d6 bd
       0.12181723 -0.11317544 0.010828222 -0.10490923
000200 ec ac 95 bc f7 17 b1 3d 1a a9 cb 3d eb 21 56 3c
       -0.018270932 0.08647149 0.09944363 0.01306961
000210 85 83 db bd 74 48 5b bb 7c c8 ae bc 7a d9 7d 3d
       -0.10718445 -0.0033459933 -0.021335833 0.06197498
000220 a6 2f d8 bc f9 8a b1 bc a0 da b0 3d 18 ef 99 bc
       -0.026389908 -0.021672713 0.086354494 -0.018790767
000230 80 ad dd bb f3 03 56 bd a2 6c 01 3e 13 52 61 3d
       -0.0067650676 -0.05224986 0.12639096 0.055009913
000240 6e 15 11 be 2a 4c 1e 3c 07 24 52 bd 4d 3a 47 3d
       -0.14168331 0.009661714 -0.05130389 0.048639584
000250 a3 12 a6 3d 73 ec d2 bd 03 46 73 3c 7b e5 c3 bd
       0.081090234 -0.10299005 0.014848235 -0.09565254
000260 d6 4a 94 3d 11 d1 a8 3d 03 0d 79 bb a1 25 8f 3d
       0.07240836 0.08243001 -0.003800214 0.06989599
000270 1c 51 e5 bc 54 70 72 bd c2 df f9 3d 2f 94 0d be
       -0.027992778 -0.059189156 0.122008815 -0.13826059
000280 42 76 e8 bd 5e ec 2b bd 8e b3 67 bd 12 3f 67 bd
       -0.11350681 -0.041973464 -0.05656772 -0.056456633
000290 6b ad 33 3c d6 d7 1a 3d a7 0e 02 3c 59 dd 3b 3d
       0.010966639 0.037803493 0.007938064 0.04586539
0002a0 7b af db bd 3f da e8 bc b1 87 a4 3d a5 c6 07 3e
       -0.107268296 -0.02842438 0.080336936 0.1325937
0002b0 c7 b3 2b bd 8d cc 01 bd bf 09 4e 3d c1 c9 c0 bd
       -0.041919496 -0.031689215 0.050302263 -0.094134815
0002c0 53 c2 7c 3d fe 04 11 3e 0c cb 22 3d 87 b2 dc 3d
       0.06170876 0.1416206 0.03974442 0.10776239
0002d0 ff 4e e6 3d 86 5f e5 3d 90 bc b5 bd e1 0a 9c bd
       0.11245536 0.1119986 -0.08873856 -0.076192625
0002e0 05 58 53 3d b4 76 00 3d 54 c6 e4 3c 0e 77 ff 3d
       0.051597614 0.031363204 0.027926601 0.1247388
0002f0 66 86 00 3e ea a0 d2 3c bd dc 8c bd 61 af 95 bd
       0.12551269 0.025711495 -0.0687804 -0.073088415
000300 ff cc 29 3d 79 e7 2b bc 25 15 b5 bd dd 77 13 be
       0.041455265 -0.010492199 -0.088419236 -0.14401193
000310 df 00 1d bd f3 bb 4a 3d d0 68 54 3d 44 a6 da bb
       -0.03833091 0.04949565 0.05185777 -0.0066726524
000320 09 54 ae bd 32 4b 4b bd 60 96 25 3d 11 0f 57 bd
       -0.08512122 -0.04963226 0.040426612 -0.052504603
000330 3b 22 85 3b d4 85 a5 bd ec a9 c6 bd 50 47 0e 3e
       0.0040629185 -0.08082166 -0.09700379 0.13894391
000340 31 b6 f9 3d 43 c7 00 bc 3a e0 da bb 4e a7 07 3d
       0.121929534 -0.007860008 -0.006679562 0.03311854
000350 bd 28 ae 3d f2 9d 6f 3b a8 ba 1d 3e 81 69 5e 3d
       0.08503864 0.0036562649 0.15403235 0.054299835
000360 65 50 28 bd 1d 3f a1 3c a5 bb 3f bb 49 7e d5 bd
       -0.041092295 0.019683415 -0.0029256132 -0.104244776
000370 59 6b d8 3c 99 99 42 bd 07 51 d1 bc 36 22 eb ba
       0.026418375 -0.047509763 -0.025551332 -0.0017939273
000380 0a 42 98 bb eb 9e 96 bd 84 29 28 3e 8b 85 86 bb
       -0.0046465443 -0.0735453 0.16422087 -0.004105275
000390 6f cc 66 bd 34 de 2b bd 57 fb 45 3d f2 9a d3 bd
       -0.056347307 -0.041959956 0.0483354 -0.10332288
0003a0 f6 50 c7 3d 03 2c 93 3d b9 d3 9e bd c5 da 1a 3d
       0.09732239 0.07186129 -0.07755227 0.03780629
0003b0 e1 77 04 bd f3 a9 3c be 8b bd 1d be 03 ac bb bc
       -0.032340888 -0.18424205 -0.15404336 -0.02290917
0003c0 01 53 9c bd 47 2f 0d be 95 d0 9d bc 0c 8b fb bd
       -0.07633019 -0.13787566 -0.019264499 -0.122823805
0003d0 7a 3d 4a ba eb 55 56 bd 6a 5e c9 3d 8e 6d 10 bd
       -0.0007714849 -0.05232803 0.09832461 -0.03526073
0003e0 0e 8a b8 3d 92 06 3b 3d c6 f0 97 3c 7a c5 20 be
       0.09010707 0.045660563 0.018547427 -0.15700331
0003f0 64 89 c4 3d d6 de ae bc 94 46 3f bd b0 f0 96 bd
       0.09596518 -0.02134649 -0.046698168 -0.07370126

fc2.bias f4 [128]
000000 23 c3 e8 3c ab 86 d3 bc 66 bb 4e bc dd 1d 35 3b
       0.028413361 -0.02582105 -0.012617921 0.0027636208
000010 cd fb 63 bd 28 d3 c3 3d cd 18 62 3c 60 7a b7 bc
       -0.055660058 0.09561759 0.013799858 -0.02239722
000020 f1 54 e1 bb 85 3c 46 bc 50 62 40 3d 14 fc 0f bd
       -0.006876581 -0.01209939 0.046968758 -0.03515251
000030 02 d8 5f bd 52 72 83 bc 7f b6 1f 3c f4 15 06 3e
       -0.05464936 -0.016045723 0.0097481 0.13094312
000040 ca 85 2c bd e2 10 9d 3d c8 f6 c2 bd 0f 20 82 bd
       -0.04211978 0.07669236 -0.09519726 -0.06353771
000050 61 81 a4 3c e4 ab f4 bc 7b 6a 9a bd 23 b7 b8 bb
       0.020081224 -0.02986712 -0.07539841 -0.005637066
000060 f9 35 5a bd 94 1f 3f bc 7a b9 30 bd b7 5f 17 3d
       -0.05327413 -0.011665244 -0.043145634 0.036956515
000070 88 1f ae bb 61 d5 91 bc 8b 70 82 bd f2 55 d1 3c
       -0.0053138174 -0.017801942 -0.06369122 0.025553677
000080 67 92 41 3d 25 70 af bd 14 46 c1 bd 37 b7 97 bc
       0.04725876 -0.08566312 -0.094371945 -0.01851998
000090 f0 87 e4 3c e9 35 82 bd e1 2c 39 3d 61 5c a0 bc
       0.027896851 -0.06357939 0.045208815 -0.0195753
0000a0 59 e3 c4 3c 76 3a b3 3b 79 9e 26 3c cc 80 aa bd
       0.024034189 0.0054696156 0.010169619 -0.08325347
0000b0 f2 92 14 bd ae d8 6a 3d 92 b0 33 bc 82 16 34 bd
       -0.03627295 0.057335548 -0.010967391 -0.043966778
0000c0 15 9a f9 3c 2e 70 53 3b 51 d8 e7 bc 94 4c ba 3c
       0.03046898 0.003226291 -0.02830139 0.022741593
0000d0 a6 f5 81 bc e0 ae 75 bd b2 85 ad bc 0d 71 54 3c
       -0.015864205 -0.059981227 -0.021181915 0.0129664065
0000e0 e9 f3 20 3c 9a 3f aa 3c 32 b2 b2 bd 25 a9 3b b6
       0.009823778 0.02078228 -0.08725394 -2.7963627e-06
0000f0 39 35 71 bc bb e0 ce bb f9 a6 c7 bc 3c d8 95 bc
       -0.014722162 -0.006313411 -0.024371611 -0.018291585
000100 4e 30 9b bc da 8d 58 3d 5f a6 ab 3b ca 97 99 bb
       -0.018943932 0.052869655 0.005238339 -0.004687284
000110 aa 66 95 3c c7 85 35 3c fc 5b 9c 39 7c e1 76 3c
       0.01823743 0.011079258 0.00029823172 0.015068408
000120 41 76 90 bc a1 08 14 bc 36 a3 9f bd d9 a9 a8 bc
       -0.017634513 -0.00903526 -0.07794802 -0.020588802
000130 0a 35 0e bd 8f 4f 8b bc af da 4b 3d 7d 65 ae 3c
       -0.03471855 -0.01700571 0.0497691 0.021288628
000140 c5 ec 9f bd a7 94 b0 3c 0a 5f c7 3d 9b 98 a8 bc
       -0.07808832 0.021555258 0.09734924 -0.02058058
000150 c3 33 34 bd 58 03 57 bd 7a 91 0a bd c4 8c 90 3d
       -0.043994676 -0.052493423 -0.033830144 0.07058099
000160 24 7d 8f 3d 6b 30 23 3d e2 84 e7 3d 18 9d 21 3d
       0.070062906 0.039841097 0.11304642 0.039456457
000170 ce 39 fb 3c 97 58 bb 3c 58 81 2d bd b0 a7 2b bd
       0.030667212 0.022869391 -0.04235968 -0.041907966
000180 8f f0 81 bd f8 f3 94 3c 1e 47 5a 3d 7b ed 8a bd
       -0.06344711 0.01818274 0.05329048 -0.06783577
000190 10 a4 83 bd 71 92 28 bb 6e 9b 28 3c a8 5f 67 bd
       -0.06427777 -0.0025722052 0.010290964 -0.05648771
0001a0 98 09 25 3b b7 66 b7 3c 22 32 ac bd af 08 bd 3d
       0.002518272 0.022387845 -0.084079996 0.09230172
0001b0 9e fa dc 3c 47 98 25 bd 92 44 b8 bc fe ae b9 ba
       0.026974972 -0.040428426 -0.022493634 -0.0014166532
0001c0 40 67 7b 3c e3 90 d2 bc 18 80 01 3d 32 cc 4f 3d
       0.015344441 -0.025703853 0.0316163 0.050731845
0001d0 c0 d6 a4 3d cb 41 e3 3c 23 3c 51 3d e4 0d 5e 3d
       0.08048773 0.027741333 0.05108274 0.054212466
0001e0 80 93 82 bd f6 03 9e 3c 87 42 90 bd 66 d8 70 3c
       -0.0637579 0.019288998 -0.07043939 0.014700031
0001f0 66 c0 16 bd 32 fe a1 bd fb 55 d1 bd cb ea 91 3c
       -0.03680458 -0.07909812 -0.102214776 0.017812153

fc3.weight f4 [4, 128]
000000 f9 14 94 3c 59 f7 2c bd 0d 33 59 3e 2b 40 e8 3d
       0.018076407 -0.042228077 0.2121088 0.11340364
000010 46 8e a2 3c 90 8c 7d 3e e8 ad 46 be d1 26 aa bb
       0.019843232 0.24760652 -0.19402277 -0.0051926156
000020 b2 f8 fa be 42 b1 7e 3e 5e 50 3b 3e 05 5a 23 be
       -0.49017864 0.24872306 0.18292376 -0.15952308
000030 d5 14 18 be 5b 59 0f bf f6 47 9c 3c d7 d2 9f be
       -0.14851697 -0.5599572 0.019077282 -0.31215546
000040 9c 15 42 bd 0f 37 4c bc b5 23 a6 3e d0 52 b6 3e
       -0.04738389 -0.012464299 0.32449117 0.35610056
000050 45 0e 33 3e 4c c3 10 3e a1 90 4d be c3 71 25 bf
       0.17485912 0.14137 -0.20074703 -0.6462671
000060 0f 24 e5 be 2b fb 7b be c3 3b af be 30 86 f9 bd
       -0.44754073 -0.24607532 -0.34225282 -0.12183797
000070 a9 b9 33 3e 05 9e a2 3e cd be 1a be 36 5e f6 3d
       0.17551292 0.31761184 -0.15111847 0.12029688
000080 ba 37 75 be 3d a1 f0 3e 26 c4 cc 3e ec 99 e8 bd
       -0.23947039 0.46998015 0.399934 -0.11357483
000090 af 08 9f ba 11 90 24 3e 2f 5c 60 be 49 97 a8 3e
       -0.0012133325 0.16070582 -0.21910165 0.3292792
0000a0 2f 77 14 bf af e9 6e 3e 1b 54 57 be 31 e5 cd be
       -0.5799436 0.2333133 -0.21028177 -0.40213922
0000b0 44 9d e0 be 93 d2 b0 3e 29 fd 94 3e e1 1d 64 3e
       -0.43869984 0.34535655 0.29099396 0.22277023
0000c0 80 77 d3 3e a5 de a3 3d e1 86 03 3c 2a cc 36 3d
       0.4130211 0.080014504 0.008027763 0.0446283
0000d0 e0 ed 4a 3e 2f 1e ee be 7f af fe 3d 5a 9c 10 3e
       0.19817305 -0.46507403 0.12435817 0.14122143
0000e0 9f a6 19 bf 4c cd 13 3e 38 87 01 bd 45 d4 f6 ba
       -0.6001987 0.14433783 -0.031623095 -0.0018831572
0000f0 16 76 53 bd db 6a ae 3c 14 d6 a4 3c f1 a4 87 3d
       -0.051626287 0.021291187 0.020121612 0.06623257
000100 ca 30 fb bd 33 5f 38 3e 71 0b e2 3d 44 fd 70 be
       -0.12265165 0.18005066 0.110373385 -0.23534113
000110 9b ff 3c 3d ae a1 95 3e 49 5b 2c be 6c ab 96 3e
       0.046142202 0.29224914 -0.16831698 0.2942766
000120 ed cb 20 3e f3 3d 2e bc f5 43 41 3e f8 85 a1 be
       0.15702792 -0.010634887 0.1887358 -0.31547523
000130 80 9c ad 3e 74 6b 78 3e ca 35 26 3e 18 bd 2a 3e
       0.33908463 0.2425974 0.16231456 0.16673696
000140 1e c0 17 bd 2f be d7 be 35 f2 95 3d b4 2c 82 be
       -0.03704845 -0.42137286 0.07321588 -0.2542473
000150 b6 ce 0d bf 9a 32 42 3e 74 b2 59 be 44 4e 81 be
       -0.5539354 0.18964615 -0.2125948 -0.25255024
000160 96 05 4b be 02 3a 0b bc 39 e1 ed 3d e3 ba 44 be
       -0.1982635 -0.008497717 0.116152234 -0.19211917
000170 51 40 56 3d 2f 0d 20 3e 73 1f 33 be 31 a5 b5 bd
       0.05230743 0.15630029 -0.17492466 -0.088693984
000180 06 30 96 3e 2e 3c 09 3e cc 4a bb 3d d9 09 e6 3e
       0.29333514 0.13401863 0.09145126 0.44929388
000190 a1 8e 12 3e 78 19 73 bd 05 76 fe bd 90 f7 8c 3e
       0.14312221 -0.05935046 -0.12424854 0.27532625
0001a0 f7 1e 82 3d 74 72 4c 3e 59 fa 2c 3d b4 00 fd 3d
       0.06353562 0.19965535 0.042230938 0.1235365
0001b0 57 e0 b9 be 59 20 64 3e 6a 9a 1b be 6e 61 88 3e
       -0.3630397 0.22277965 -0.15195623 0.26636833
0001c0 1f 91 1f be 21 8f 80 3e 34 82 b5 be a8 59 2e 3e
       -0.15582703 0.251092 -0.354509 0.17026389
0001d0 83 61 cb be 6b 8b ac bd e1 d2 d5 bd 24 65 64 be
       -0.39722833 -0.08425029 -0.104406126 -0.22304207
0001e0 38 65 7d be 23 46 86 3e 4a 1a 51 bc f7 3d 6b be
       -0.24745643 0.26225385 -0.012762615 -0.22972856
0001f0 3e bf ed bd b6 33 81 be d9 89 bf 3d d6 8e 22 3e
       -0.11608742 -0.25234765 0.09352464 0.158748
000200 58 68 59 bd c9 74 4f 3e 01 b3 2b 3e 42 55 11 3c
       -0.053078026 0.20259394 0.16767503 0.008870425
000210 cd 19 10 bd 3c f7 59 3e 28 b3 67 bd e4 a4 23 be
       -0.035180856 0.21285719 -0.05656734 -0.1598087
000220 89 50 90 3e a7 19 04 3e 6f ba eb 3e fc 72 b5 3e
       0.28186443 0.1290041 0.46040675 0.3543929
000230 b3 b8 ae be 9a 92 72 be 77 02 22 3e 1c e3 f7 ba
       -0.3412529 -0.23688737 0.15821253 -0.0018912288
000240 0a 69 0f bf 72 c5 bb 3e b5 2a 87 3e 7a c2 0e 3f
       -0.5601965 0.36674076 0.2639977 0.557655
000250 6f 9c 0d bf 5e a1 95 be 46 3f 7d 3d a9 91 81 bd
       -0.55316824 -0.29224676 0.06182792 -0.063266106
000260 a2 90 df 3d 44 3a a0 3e 6c 3f 2f 3e cd 5e 9d be
       0.109162584 0.31294453 0.17114037 -0.3073639
000270 ba a4 24 3d 28 9d 7a be 29 e0 a8 be d0 7f 5d be
       0.040196158 -0.24474013 -0.3298352 -0.21630788
000280 c6 ed 81 be c6 f9 92 3e 44 d4 e4 bc 18 8c b1 3c
       -0.2537672 0.28706187 -0.027933247 0.021673247
000290 17 91 98 be 2f e0 de be 99 7a 71 bd e3 5a 9f bb
       -0.29798195 -0.43530414 -0.05895481 -0.0048631295
0002a0 6c 46 44 bd 29 87 9c be 49 60 72 be 6c 9f 8d 3b
       -0.047918722 -0.3057187 -0.23669542 0.004321983
0002b0 29 e4 5a 3e e9 28 14 be a8 ff ca 3e bc f6 72 3e
       0.21376099 -0.14468731 0.39648175 0.23726934
0002c0 c8 fc b0 3c e6 1f 00 bc 83 39 01 3e 1a ba a2 3d
       0.02160491 -0.007820105 0.12619595 0.07945652
0002d0 8c bd a3 3d 5d df a7 3c 4e 74 55 3e 87 d1 03 bf
       0.079951376 0.02049225 0.20845148 -0.5149159
0002e0 34 e5 4a 3d 3d 9e de 3d fe 39 f4 bd 85 8a a6 3d
       0.04953499 0.10870025 -0.11925124 0.08131889
0002f0 44 1e 49 be 31 d8 45 3e f7 8d 80 3e 6d 4f fc 3e
       -0.19640452 0.19320752 0.2510831 0.49279347
000300 d8 6e ed 3d df 0d e5 3d a3 ba 9d 3e 5d 37 ba 3e
       0.115934074 0.11184286 0.30806455 0.36370364
000310 59 e8 a2 3d 34 05 00 3d 88 79 46 be 49 68 42 be
       0.07954473 0.031254962 -0.19382298 -0.18985094
000320 5a 33 28 3d a3 52 32 be 3c f9 5c be ad 63 ce 3e
       0.041064598 -0.17414336 -0.2157945 0.40310422
000330 3e 35 d2 3d d5 c2 07 3e 02 a8 14 be 36 da 36 3e
       0.102640614 0.13257916 -0.14517215 0.17856678
000340 5b e8 ec 3c 05 1c 53 3d d4 34 86 be fa 1b 25 3e
       0.02891939 0.051540393 -0.2621218 0.16123953
000350 27 8b 97 3e b0 0f 4a be 43 33 e2 be 35 49 96 3e
       0.29598352 -0.19732547 -0.44179735 0.29352728
000360 2e df b0 3d 45 d1 35 3d 17 47 00 3f 2a 85 99 3e
       0.08636318 0.044389028 0.50108474 0.2998441
000370 c4 43 62 3e 64 68 9f be 21 a5 f0 3d f8 80 59 bf
       0.22096163 -0.3113433 0.11750246 -0.84962416
000380 1e 87 d2 3d e9 c6 46 bb 46 d1 cc bd 06 8f b2 be
       0.10279678 -0.0030330962 -0.10000853 -0.34874743
000390 64 35 5b be 58 fa 4e be 3c df f5 bc cc bc ae 3e
       -0.21407086 -0.20212686 -0.030013673 0.34128416
0003a0 eb 59 d3 3e c7 42 86 be 71 38 f9 3c 8b e9 aa 3d
       0.4127954 -0.26222822 0.030422421 0.08345326
0003b0 78 7e b0 3b a4 ed 15 3e 5f 29 f4 bd 3f b8 33 be
       0.00538617 0.14641434 -0.119219534 -0.17550753
0003c0 5a 97 97 3e 7f d8 3f be a3 35 78 be 97 ec 95 be
       0.2960766 -0.1873493 -0.24239211 -0.29282066
0003d0 31 60 59 3d a6 72 07 be dd 29 54 be 7a 9d c8 3d
       0.05307025 -0.13227329 -0.20719095 0.09795661
0003e0 49 47 d0 3d d5 e5 c4 3c 2a 59 b5 bd 36 ad 7b 3d
       0.101698466 0.024035374 -0.08854897 0.061444484
0003f0 b3 32 07 be ef 60 6b be ca af 97 be 5a c2 98 be
       -0.13202934 -0.22986196 -0.29626304 -0.29835778

fc3.bias f4 [4]
000000 64 97 50 3d 54 5d 96 bd 9d 8b 80 3d d8 21 d5 bc
       0.050925627 -0.0734202 0.06276629 -0.026017115
