critic_checkpoint.pth (torch_old, 169967 bytes, 5 tensors)

fc1.weight f4 [256, 33]
0.09185778 0.15089312 -0.07258146 -0.11501389 -0.03376908 -0.024851704 -0.019400824 0.05863222
0.06984266 0.021724198 -0.094202586 0.00634112 -0.10335346 -0.16626668 -0.115826644 0.15057942
0.05226409 0.010297623 -0.09087466 0.014305449 0.008559719 0.18380162 0.052088577 0.04241484
-0.012950402 0.042178277 0.115123495 -0.059293937 -0.1173404 -0.044070408 -0.1700499 0.15040323
-0.14804605 -0.09658475 -0.06891797 -0.1461947 -0.12552889 0.1070259 0.018952008 0.10138532
-0.010490466 -0.112992525 0.082331695 -0.14205287 -0.05409151 -0.037599202 0.075122796 0.23612446
-0.0023986124 0.028337648 -0.020312162 0.09265135 -0.008005978 -0.002067664 -0.016947463 -0.03825004
-0.07036997 0.18207006 -0.08621349 -0.15312345 0.08415437 0.069661915 -0.103115335 0.047203414
0.09556377 0.20798029 0.022266706 0.18586078 0.067205064 0.048544362 -0.018489916 -0.09630465
0.01478861 0.0823428 0.18274997 0.1596523 0.033855576 -0.025278406 0.019684294 -0.15997602
-0.19766776 0.1651144 0.08422003 -0.12164634 0.05930046 -0.047289684 0.013543683 0.0006981977
-0.050311077 -0.09710424 -0.047638707 0.114330105 0.05527637 0.1567773 -0.15928546 -0.11292364
-0.004767378 0.036434695 -0.23253496 -0.071078144 0.11858096 0.061652895 -0.017578628 -0.07496506
-0.03667255 0.06637993 -0.072715595 -0.15952848 0.0005599359 -0.014416642 -0.04458863 0.099255584
-0.016561119 0.13650094 0.18648739 -0.08168303 -0.029614085 0.07750927 0.01669874 0.08839502
0.13909931 -0.025022304 -0.141105 0.13922083 -0.023127783 -0.0021029536 0.0024197744 -0.06389802
-0.060898177 -0.18867409 -0.037028953 -0.1165048 -0.044102535 -0.09638318 0.18558873 -0.03957391
0.018261926 0.11491577 0.007791964 -0.008012822 0.074353285 0.0216324 0.018998625 0.05702622
-0.06233723 -0.001181573 0.10505761 -0.027106902 -0.0038885626 -0.07158453 -0.20057683 -0.12009416
-0.0059964433 -0.028773867 0.15648156 -0.18667817 0.05403914 -0.1224442 0.019317655 0.032769263
-0.09046575 -0.034178883 -0.25956103 -0.15030524 -0.0024817449 -0.120511755 0.015509521 0.13329744
-0.18971582 -0.062328376 0.081148155 -0.035937607 0.073234305 0.09485391 -0.12557559 0.15405332
0.057453834 -0.062659934 0.07574783 -0.19603916 -0.10339098 -0.1288187 0.030735912 0.022946516
-0.022067472 -0.036625635 -0.02285034 -0.023858886 0.017410519 -0.10898381 0.030896856 -0.019538842
-0.06252556 0.009862895 -0.12271328 -0.15609127 -0.10143601 0.15514722 -0.124793544 -0.07702585
0.119609915 0.091962524 -0.07855645 -0.081145674 -0.015559759 0.06806742 -0.01730855 0.07276499
-0.011465693 -0.06016675 0.023498833 0.030773401 -0.02179926 -0.033495158 0.030466681 -0.048985228
-0.14329131 -0.034584817 0.12104322 -0.062103856 0.021705097 0.047082137 0.039773103 -0.07069157
-0.028166328 0.117802516 -0.10249323 -0.049414426 -0.08997439 -0.02577871 0.34379867 0.057153545
-0.044249017 0.16596343 0.17401968 -0.13896759 0.07799603 0.012767771 -0.079263754 0.03729509
0.007154062 0.11284592 -0.113458686 0.06578837 0.079219714 -0.18261054 0.15805307 -0.048336674
0.047770713 0.054833777 0.006979291 0.012796685 0.034657974 -0.056604363 -0.035369307 -0.076258294
00000000: ef1f bc3d ba83 1a3e 97a5 94bd 678c ebbd
00000010: 7251 0abd cd95 cbbc 7aee 9ebc 5728 703d
00000020: ab09 8f3d f2f6 b13c 49ed c0bd 2cc9 cf3b
00000030: fbaa d3bd d041 2abe 8536 edbd 7e31 1a3e
00000040: df12 563d 5db7 283c 7e1c babd 6761 6a3c
00000050: 103e 0c3c 7e36 3c3e d55a 553d 2fbb 2d3d
00000060: ec2d 54bc 21c3 2c3d dec5 eb3d 33de 72bd
00000070: 2a50 f0bd 2c83 34bd 9021 2ebe 4e03 1a3e
00000080: 6299 17be 3ace c5bd dd24 8dbd 10b4 15be
00000090: a58a 00be 6530 db3d 3e41 9b3c 1ba3 cf3d
000000a0: 34e0 2bbc a068 e7bd 859d a83d 4f76 11be
000000b0: 0f8f 5dbd 9f01 1abd fbd9 993d 9cca 713e
000000c0: 0a32 1dbb 5b24 e83c b165 a6bc febf bd3d
000000d0: 812b 03bc a581 07bb 68d5 8abc 13ac 1cbd
000000e0: 211e 90bd 9370 3a3e b390 b0bd 65cc 1cbe
000000f0: 2059 ac3d e8aa 8e3d 222e d3bd 5e58 413d
00000100: f0b6 c33d c9f8 543e ab68 b63c 4a52 3e3e
00000110: cfa2 893d 74d6 463d 2a78 97bc 5f3b c5bd
00000120: ed4b 723c 58a3 a83d cf22 3b3e e47b 233e
00000130: 25ac 0a3d a914 cfbc f540 a13c c1d0 23be
00000140: 6b69 4abe c013 293e 8d7b ac3d b721 f9bd
00000150: 0ae5 723d d4b2 41bd 53e6 5d3c 4107 373a
00000160: fd12 4ebd 96de c6bd ce20 43bd e725 ea3d
00000170: 7a69 623d 3b8a 203e ba1b 23be 8244 e7bd
00000180: aa37 9cbb 8c3c 153d a51d 6ebe 6b91 91bd
00000190: 93da f23d bf87 7c3d 0e01 90bc 4887 99bd
000001a0: f535 16bd 33f2 873d eaeb 94bd 6f5b 23be
000001b0: aac8 123a c733 6cbc 91a2 36bd 8346 cb3d
000001c0: 2fab 87bc e7c6 0b3e 8df6 3e3e 6f49 a7bd
000001d0: 3d99 f2bc 2ebd 9e3d cccb 883c 7308 b53d
000001e0: 0d70 0e3e 93fb ccbc d47d 10be e88f 0e3e
000001f0: 7a76 bdbc b5d1 09bb 1495 1e3b f7dc 82bd
00000200: 5e70 79bd c833 41be acab 17bd 129a eebd
00000210: dca4 34bd 8b64 c5bd f90a 3e3e 4118 22bd
00000220: 099a 953c f658 eb3d bb53 ff3b 3648 03bc
00000230: 8946 983d 6e36 b13c 01a3 9b3c 5394 693d
00000240: 5355 7fbd 03df 9aba 7228 d73d 4b0f debc
00000250: 41d7 7ebb e99a 92bd 0364 4dbe edf3 f5bd
00000260: d07d c4bb 2cb7 ebbc b43c 203e 9028 3fbe
00000270: 2558 5d3d 06c4 fabd 0f40 9e3c 1039 063d
00000280: 1b46 b9bd 28ff 0bbd 2fe5 84be 9ee9 19be
00000290: c5a4 22bb dece f6bd a51b 7e3c 207f 083e
000002a0: dd44 42be 0a4c 7fbd 0131 a63d 5033 13bd
000002b0: defb 953d c442 c23d e396 00be 27c0 1d3e
000002c0: b654 6b3d da53 80bd ae21 9b3d 7dbe 48be
000002d0: a6be d3bd 0de9 03be e1c9 fb3c 55fa bb3c
000002e0: d8c6 b4bc c304 16bd a330 bbbc b673 c3bc
000002f0: 81a0 8e3c e732 dfbd 671b fd3c ec0f a0bc
00000300: 670d 80bd fb97 213c 1a51 fbbd 64d6 1fbe
00000310: afbd cfbd eade 1e3e c293 ffbd bbbf 9dbd
00000320: 0bf6 f43d d956 bc3d 34e2 a0bd b42f a6bd
00000330: 5cee 7ebc ee66 8b3d a9ca 8dbc d005 953d
00000340: 9ada 3bbc 6971 76bd a080 c03c 8018 fc3c
00000350: 5d94 b2bc 3832 09bd 4395 f93c bca4 48bd
00000360: f5ba 12be cfa8 0dbd 82e5 f73d 9d60 7ebd
00000370: e3ce b13c 33d9 403d 1fe9 223d bec6 90bd
00000380: 12bd e6bc 7242 f13d f8e7 d1bd c866 4abd
00000390: 7e44 b8bd e02d d3bc 6106 b03e d619 6a3d
000003a0: 753e 35bd 51f2 293e 3732 323e 854d 0ebe
000003b0: 62bc 9f3d ea2f 513c 0955 a2bd bcc2 183d
000003c0: 9f6c ea3b c31b e73d 075d e8bd 0ebc 863d
000003d0: f23d a23d 42fe 3abe aad8 213e adfc 45bd
000003e0: 39ab 433d 6299 603d 89b2 e43b 30a9 513c
000003f0: 85f5 0d3d fad9 67bd 68df 10bd 4f2d 9cbd

fc1.bias f4 [256]
-0.013820465 0.15215488 -0.13766351 0.098194 -0.10690867 -0.22113985 -0.19383167 -0.01872884
-0.005818058 0.11505036 -0.132881 -0.09737264 0.0457475 -0.07377138 -0.001701627 0.0073471856
-0.109875195 -0.15974405 0.12388656 -0.13546951 -0.058175467 0.021568295 -0.016292134 -0.09573352
0.060856298 -0.11883164 0.005387576 -0.03049006 0.09170357 0.16460904 -0.010907801 -0.13706717
-0.1863851 -0.0077962675 0.01290017 -0.011566277 0.21978547 0.06250739 -0.12586376 0.20644145
-0.12509216 -0.021189649 0.13219108 -0.14618815 -0.09060325 -0.12708035 -0.009652225 0.112944305
0.15039171 -0.072406456 -0.15593925 0.12721439 -0.06630346 -0.12121199 -0.13537665 0.05995237
0.040563166 -0.08458368 0.017420404 0.015226712 -0.14032868 0.095494606 -0.22142313 -0.025562514
-0.1989642 -0.24022147 0.029833471 -0.0113167735 0.0027908727 0.074592285 0.0724289 0.0011992697
-0.038428593 -0.11229124 0.049045075 0.17560129 0.09739807 0.044691842 0.18900512 -0.14814596
0.015555977 0.08709796 -0.047694325 0.11066802 0.06805147 -0.15071057 0.12191166 -0.0017349258
0.13226856 0.09957621 -0.004411145 -0.006019335 0.055287577 -0.16290262 -0.24699864 0.114883274
0.17936799 -0.07886153 0.08420634 -0.092577815 0.0064197686 0.014468378 0.14163303 -0.07630813
-0.121657185 0.1198883 -0.12552482 0.17957853 0.06524395 -0.08305642 0.22946486 0.14494327
-0.07741966 0.06643001 0.036441192 -0.099395454 -0.02618941 -0.18653011 0.01571826 -0.12696514
0.11608971 0.078344636 0.10571615 -0.027333325 -0.115401156 0.0648548 0.10907008 0.14891548
-0.019911781 0.10738255 -0.051578138 -0.19633228 0.062288374 0.13226837 0.0108091 -0.045774627
-0.20994172 0.06395041 -0.2948954 -0.09670588 0.041929167 -0.08423965 -0.097834714 -0.18922505
0.021511516 -0.117764995 -0.0014035456 -0.046182267 0.100438274 0.16288835 0.012797691 -0.0061598406
0.0552906 0.039283074 0.07561507 -0.0012697151 0.04006817 -0.041445207 -0.07535175 -0.14916013
0.14198579 -0.13928755 -0.0003999985 -0.2500255 0.015151831 0.05616804 0.07776501 -0.07356715
-0.09805958 0.10681107 0.046700586 0.08220543 0.12595181 0.0329166 0.022825722 0.13235728
0.0025021217 0.0122332815 0.13927533 -0.043585777 -0.05637085 0.03751796 -0.111386046 -0.0554608
0.024684079 0.0465375 0.014721891 -0.022162162 0.0074559622 0.15374625 -0.09955696 0.097779274
0.035004795 0.09292705 0.053909406 0.0014976156 0.026678432 -0.12602754 -0.09894885 -0.14701463
-0.13683102 0.03627649 -0.0044549964 -0.038905136 0.1075833 -0.0388767 -0.017359484 0.024273181
-0.20770298 0.010711639 0.10067102 0.087657064 -0.048493654 -0.06120367 0.040334694 0.1634036
0.08930183 0.046588663 0.04643206 0.05658472 0.03720545 -0.16314396 -0.21086827 -0.237197
0.111670345 -0.08306878 -0.17426434 0.013289304 -0.0434338 0.04555099 -0.041905433 0.092917
-0.18042178 -0.259672 0.13974263 -0.13826452 0.053923327 0.053903606 -0.01633742 -0.11445194
0.00738693 -0.14630434 0.18659173 -0.010239439 0.10869305 0.08599324 0.08855806 0.055444606
0.08946303 -0.167048 0.14165562 0.00822641 0.13557822 -0.08370928 0.090698496 0.15195502
00000000: 3b6f 62bc 7dce 1b3e aaf7 0cbe f019 c93d
00000010: eff2 dabd 7c72 62be cf7b 46be 396d 99bc
00000020: 68a5 bebb 869f eb3d f511 08be 4f6b c7bd
00000030: bb61 3b3d 7315 97bd 2109 dfba a9c0 f03b
00000040: 3f06 e1bd f293 23be 3db8 fd3d 85b8 0abe
00000050: 6649 6ebd feaf b03c 1577 85bc f00f c4bd
00000060: 7444 793d 015e f3bd 438a b03b 4ac6 f9bc
00000070: 15cf bb3d 468f 283e a2b6 32bc 565b 0cbe
00000080: bcdb 3ebe d577 ffbb 3c5b 533c 7b80 3dbc
00000090: 710f 613e e003 803d 6ee2 00be 6365 533e
000000a0: 2918 00be ea95 adbc 195d 073e 59b2 15be
000000b0: 328e b9bd 5a21 02be 5e24 1ebc 584f e73d
000000c0: 4900 1a3e d649 94bd 8aae 1fbe 7d44 023e
000000d0: 1cca 87bd fe3d f8bd 2da0 0abe 9e90 753d
000000e0: 9025 263d 353a adbd 3cb5 8e3c 7679 793c
000000f0: 52b2 0fbe ad92 c33d bfbc 62be 7a68 d1bc
00000100: 45bd 4bbe 9efc 75be 5365 f43c fd69 39bc
00000110: 13e7 363b d7c3 983d 9a55 943d d030 9d3a
00000120: 4d67 1dbd f3f8 e5bd 7de3 483d d3d0 333e
00000130: a478 c73d cb0e 373d 8f8a 413e 93b3 17be
00000140: 7fde 7e3c 6a60 b23d 205b 43bd eaa5 e23d
00000150: 925e 8b3d df53 1abe d2ac f93d 7366 e3ba
00000160: 6971 073e 9dee cb3d 5e8b 90bb d73d c5bb
00000170: 3a75 623d f2cf 26be 36ed 7cbe ec47 eb3d
00000180: 3eac 373e 2782 a1bd 6074 ac3d 7099 bdbd
00000190: ec5c d23b c70c 6d3c 4008 113e 7047 9cbd
000001a0: 6727 f9bd ff87 f53d 9489 00be 6fe3 373e
000001b0: 9f9e 853d 7c19 aabd d6f8 6a3e 026c 143e
000001c0: 338e 9ebd 750c 883d 5c43 153d d88f cbbd
000001d0: 2c8b d6bc c001 3fbe 95c3 803c 2603 02be
000001e0: 71c0 ed3d 2773 a03d b581 d83d 23ea dfbc
000001f0: 7157 ecbd 98d2 843d 2260 df3d 4d7d 183e
00000200: 081e a3bc 62eb db3d 9943 53bd 540b 49be
00000210: 1822 7f3d 5c71 073e a718 313c 2d7e 3bbd
00000220: f6fa 56be 6ff8 823d 88fc 96be bb0d c6bd
00000230: ebbd 2b3d d685 acbd 915d c8bd 36c4 41be
00000240: eb38 b03c c62e f1bd 2df7 b7ba 9e29 3dbd
00000250: 95b2 cd3d 34cc 263e 68ad 513c 7dd8 c9bb
00000260: 6578 623d 4ae7 203d 13dc 9a3d 926c a6ba
00000270: 851e 243d 73c2 29bd 0552 9abd 6fbd 18be
00000280: b964 113e 65a1 0ebe e4b6 d1b9 5803 80be
00000290: 633f 783c 7510 663d 4343 9f3d 60aa 96bd
000002a0: 76d3 c8bd c3bf da3d 1d49 3f3d 525b a83d
000002b0: 83f9 003e 8fd3 063d 02fd ba3c ab88 073e
000002c0: a3fa 233b 1a6e 483c 319e 0e3e 0087 32bd
000002d0: 1fe5 66bd 6fac 193d 5e1e e4bd dd2a 63bd
000002e0: 4436 ca3c 1b9e 3e3d 1634 713c 6c8d b5bc
000002f0: 2551 f43b a86f 1d3e 85e4 cbbd 8040 c83d
00000300: 3061 0f3d 8a50 be3d 1cd0 5c3d a44b c43a
00000310: ba8c da3c 5d0d 01be b2a5 cabd 018b 16be
00000320: 6e1d 0cbe a896 143d 38fb 91bb fe5a 1fbd
00000330: a254 dc3d 2d3d 1fbd 7a35 8ebc 8dd8 c63c
00000340: 17b0 54be df7f 2f3c 9c2c ce3d 8c85 b33d
00000350: 48a1 46bd b3b0 7abd fe35 253d 4653 273e
00000360: e1e3 b63d c1d3 3e3d 8b2f 3e3d 61c5 673d
00000370: be64 183d 360f 27be daed 57be c5e3 72be
00000380: 6cb3 e43d f71f aabd 5a72 32be 62bb 593c
00000390: a4e7 31bd ad93 3a3d 08a5 2bbd 454b be3d
000003a0: 7dc0 38be baf3 84be b118 0f3e 3795 0dbe
000003b0: b5de 5c3d 07ca 5c3d 0ed6 85bc c765 eabd
000003c0: 0f0e f23b ced0 15be e711 3f3e 52c3 27bc
000003d0: 769a de3d 391d b03d ee5d b53d e219 633d
000003e0: 6538 b73d a20e 2bbe 2c0e 113e 10c8 063c
000003f0: 04d5 0a3e c56f abbd 22c0 b93d 199a 1b3e

fc2.weight f4 [128, 260]
-0.06690012 -0.030124476 0.016372647 -0.045538172 0.0021563063 0.014625756 -0.030677704 0.06010445
0.04286441 -0.018124493 0.054878686 -0.038377363 0.07094343 -0.033681467 -0.005011009 0.08843207
0.08605707 -0.025570083 -0.023311902 0.029891534 0.045630217 0.014968783 -0.10421556 -0.10659034
0.004893428 -0.04043279 -0.014129359 0.060145583 0.06185283 -0.0141589735 -0.02250766 0.03079366
-0.059537154 -0.019631289 0.061600715 0.019964997 0.06386223 0.12863722 -0.041303124 0.083682306
0.011718456 -0.016611591 0.06425009 0.068139605 0.04179742 -0.046181154 0.0591724 0.002903295
0.07480423 0.042660277 -0.1722731 0.07814063 0.044439945 -0.056819644 0.05114431 0.030620316
0.082641415 0.06415336 0.08519285 -0.032604467 0.007314716 0.052771986 0.018562311 0.08378031
-0.018125514 -0.008305536 0.06756216 -0.01877089 -0.029811673 -0.002974728 0.055138115 -0.0434896
0.02417297 -0.06119313 0.041720398 -0.022260273 0.093459964 -0.0017193282 -0.036000147 0.03275852
-0.025264189 0.0034956823 0.022685299 -0.04078761 0.010700046 -0.01424338 0.020898335 -0.018212792
0.069927655 0.00086770224 0.0014271317 -0.017995723 -0.0031363983 -0.06012712 -0.11538771 0.04005567
0.032553803 -0.030067371 -0.0006239254 0.027347138 0.040917784 0.058998108 0.073035575 0.02012574
0.0026937719 0.066147275 -0.011774258 0.09511511 0.001765636 0.08434454 -0.054847088 -0.039349508
-0.07119047 0.05927653 0.03515456 -0.04759169 -0.012157086 0.052630875 0.084219754 0.0371244
0.10108578 -0.030919705 0.074038915 0.07746999 -0.010219914 -0.073546655 0.011066277 0.008768589
0.08171712 0.053616833 0.03115024 -0.016954053 0.021353874 0.04653176 0.027635938 -0.028262414
-0.0069958116 -0.033099413 0.013607906 -0.02425551 0.07147218 -0.06917454 0.035482872 0.03543965
-0.061364267 -0.0032080093 0.021065146 0.050766736 0.061159898 -0.030460587 -0.0070749572 -0.025616929
0.029123433 -0.008021159 -0.0074995877 0.047304984 0.041294776 0.04806141 0.04225273 -0.0056644673
-0.031837717 0.015714949 0.06859666 -0.022009484 -0.020416485 0.07815983 0.046627462 -0.020025399
-0.093020596 0.024631118 0.07060649 0.043296088 0.05976814 0.04546546 0.029849837 0.017726785
-0.021729514 0.079912774 -0.0003868931 0.009857185 0.07943891 0.03936675 0.005099331 -0.015666652
0.0019119394 -0.010518375 -0.03564811 0.081843846 0.030985644 0.034685366 -0.01430714 0.05571538
-0.0052177724 0.02021431 -0.06912971 -0.14286512 0.05191224 -0.01827916 0.0192913 -0.019637875
-0.017323695 -0.08682114 0.10710071 0.06125931 0.01458449 -0.0999376 -0.010714862 0.06773476
0.008576735 0.0435107 0.06413131 0.024397824 0.02379655 -0.006031892 0.112514675 0.09959703
0.073821105 0.0316712 0.0023028995 -0.034673996 0.042016476 0.0016950221 0.045327786 0.02280495
0.037876792 0.021630615 0.07281798 -0.05229451 0.00245459 0.009284506 0.06611289 -0.017044267
0.08974115 0.030243525 0.013934936 -0.028146097 0.07611088 -0.024166755 -0.030346366 0.029658899
-0.037050035 0.03202866 0.028387226 0.06351975 0.1011742 0.04155747 0.08402015 -0.043014035
0.024955906 0.009167578 0.07678673 0.073081866 0.049455676 -0.035036705 0.07056332 -0.0016518057
00000000: ee02 89bd 9bc7 f6bc ee1f 863c 3c86 3abd
00000010: d150 0d3b dea0 6f3c cf4f fbbc 1530 763d
00000020: 9792 2f3d d179 94bc 79c8 603d 9531 1dbd
00000030: ca4a 913d 94f5 09bd 6433 a4bb e01b b53d
00000040: b03e b03d 5a78 d1bc 9af8 bebc 17df f43c
00000050: c0e6 3a3d a03f 753c f86e d5bd 094c dabd
00000060: 0d59 a03b da9c 25bd d47e 67bc 375b 763d
00000070: 6559 7d3d 0afb 67bc fc61 b8bc fc42 fc3c
00000080: 3bdd 73bd ccd1 a0bc 0851 7c3d a28d a33c
00000090: 33ca 823d 7ab9 033e 772d 29bd a161 ab3d
000000a0: c4fe 3f3c 0815 88bc 8d95 833d c78c 8b3d
000000b0: c533 2b3d 7328 3dbd c25e 723d 3545 3e3b
000000c0: f632 993d 8bbc 2e3d 5c68 30be 3208 a03d
000000d0: a906 363d b7bb 68bd b27c 513d 75d7 fa3c
000000e0: e73f a93d d662 833d 9779 ae3d 438c 05bd
000000f0: 49b0 ef3b 7027 583d fd0f 983c 0395 ab3d
00000100: f57b 94bc f113 08bc 085e 8a3d 69c5 99bc
00000110: 9c37 f4bc a7f3 42bb 81d8 613d 2722 32bd
00000120: 6406 c63c a6a5 7abd 02e3 2a3d 2d5b b6bc
00000130: f067 bf3d 155b e1ba e474 13bd cc2d 063d
00000140: d8f6 cebc d117 653b 85d6 b93c e910 27bd
00000150: 3f4f 2f3c 115d 69bc fc32 ab3c fe32 95bc
00000160: 3b36 8f3d 8376 633a 980e bb3a c46b 93bc
00000170: 088c 4dbb db47 76bd 6450 ecbd 6a11 243d
00000180: 2357 053d d94f f6bc ed8e 23ba 1b07 e03c
00000190: 6899 273d 00a8 713d ad93 953d bcde a43c
000001a0: fe89 303b 3978 873d d1e8 40bc b6cb c23d
000001b0: ea6c e73a d5bc ac3d 57a7 60bd f32c 21bd
000001c0: 4fcc 91bd f2cb 723d 3afe 0f3d 81ef 42bd
000001d0: 842e 47bc 7993 573d 687b ac3d c10f 183d
000001e0: 1006 cf3d 524b fdbc b7a1 973d 96a8 9e3d
000001f0: 6d71 27bc a19f 96bd 544f 353c 21aa 0f3c
00000200: 4e5b a73d 539d 5b3d ca2e ff3c 3ae3 8abc
00000210: 52ee ae3c 1698 3e3d c364 e23c 9486 e7bc
00000220: 1f3d e5bb 4093 07bd b2f3 5e3c 7eb3 c6bc
00000230: 0260 923d 62ab 8dbd 7d56 113d 2b29 113d
00000240: 1959 7bbd 773d 52bb d090 ac3c c8f0 4f3d
00000250: cd82 7a3d 7b88 f9bc 0bd5 e7bb 98da d1bc
00000260: 4494 ee3c 2e6b 03bc 1abf f5bb dfc2 413d
00000270: b624 293d 0bdc 443d 3311 2d3d ff9c b9bb
00000280: 4468 02bd a3bc 803c 687c 8c3d 3c4d b4bc
00000290: 7940 a7bc 4312 a03d 70fc 3e3d 4e0c a4bc
000002a0: 9581 bebd 33c7 c93c 239a 903d 3d57 313d
000002b0: 70cf 743d fd39 3a3d a587 f43c c337 913c
000002c0: 1802 b2bc 4fa9 a33d ead7 cab9 0880 213c
000002d0: deb0 a23d 073f 213d 4a18 a73b 5a57 80bc
000002e0: 0a9a fa3a 4355 2cbc c103 12bd bf9d a73d
000002f0: 9bd5 fd3c 3e12 0e3d 7f68 6abc cf35 643d
00000300: d9f9 aabb 7b98 a53c e193 8dbd 3c4b 12be
00000310: eea1 543d 2dbe 95bc ca08 9e3c 9cdf a0bc
00000320: 6cea 8dbc 48cf b1bd 9e57 db3d 0beb 7a3d
00000330: c9f3 6e3c 16ac ccbd 638d 2fbc 86b8 8a3d
00000340: 6f85 0c3c 4738 323d 4757 833d f2dd c73c
00000350: fcf0 c23c 2da7 c5bb 186e e63d 87f9 cb3d
00000360: 852f 973d a9b9 013d 3eec 163b 5206 0ebd
00000370: 7819 2c3d 812b de3a a1a9 393d 72d1 ba3c
00000380: b224 1b3d b032 b13c 9821 953d c532 56bd
00000390: 30dd 203b 0a1e 183c 3266 873d 6ba0 8bbc
000003a0: 35ca b73d 45c1 f73c 5c4f 643c a592 e6bc
000003b0: 05e0 9b3d 5cf9 c5bc f198 f8bc 38f7 f23c
000003c0: c7c1 17bd 7c30 033d 548c e83c a516 823d
000003d0: 6b34 cf3d 2a38 2a3d c212 ac3d 7c2f 30bd
000003e0: 5470 cc3c 9c33 163c 5c42 9d3d f2ab 953d
000003f0: 0992 4a3d a682 0fbd 8083 903d 6781 d8ba

fc2.bias f4 [128]
0.0834723 -0.017785782 0.027108338 -0.071219884 -0.03346052 -0.004561922 -0.074843176 -0.018422473
-0.052023962 0.017113017 -0.053633776 -0.022380978 0.13881825 0.009038358 -0.039794724 -0.02167328
0.014236259 0.07309533 0.016493618 0.02990444 0.00026832984 -0.014442841 -0.021274198 -0.02268943
0.057854038 0.0068900133 0.10171907 -0.08180062 0.022024458 0.034119587 0.10233221 0.09045636
-0.009660783 0.07417339 0.045191653 -0.024006186 0.00035244587 -0.05484001 0.0007068737 0.05900566
0.07613908 0.0910917 -0.05487794 -0.0127280895 0.04476043 0.080684826 0.08726582 -0.06229576
0.11423854 0.055648766 -0.014501927 -0.12985633 -0.06308371 0.028768277 0.022440488 -0.10346247
0.09671078 -0.02005107 0.07801154 -0.017169608 -0.113117486 -0.027489347 0.09045155 0.056133926
0.108365156 0.1236291 -0.015992276 -0.03640503 0.15437946 0.022599483 -0.0019309314 -0.0044263806
0.04054078 0.039123118 0.073656276 0.0030302075 -0.0074132653 -0.11062426 0.035553098 -0.06233511
-0.0069822473 -0.041897666 0.008280428 -0.05354324 -0.0059929765 0.16057159 0.024715843 0.0013400709
0.023375593 0.04458978 0.03893393 -0.008895074 0.05760545 0.13400793 -0.062171794 -0.097423084
-0.06396017 -0.067595445 -0.0062532686 -0.02235801 -0.08379309 -0.036281135 -0.07062851 0.08460262
-0.061326653 0.012994823 -0.04168162 0.006644255 -0.108350985 0.020327412 -0.103661045 -0.025261693
0.0956291 -0.049998447 0.0019583313 -0.045543782 -0.013537416 -0.07508727 -0.027607836 0.01262831
0.067482725 0.052028533 -0.0026032273 0.018428449 -0.0001696513 0.0023697657 0.02131029 0.009662463
00000000: 86f3 aa3d 7db3 91bc 4e12 de3c bbdb 91bd
00000010: e60d 09bd 2d7c 95bb 6147 99bd baea 96bc
00000020: 1417 55bd 9930 8c3c 17af 5bbd 5058 b7bc
00000030: 5f26 0e3e 9f15 143c cbff 22bd 2a8c b1bc
00000040: 333f 693c 01b3 953d a01d 873c 28fa f43c
00000050: 9fae 8c39 aaa1 6cbc 3a47 aebc 2fdf b9bc
00000060: 5bf8 6c3d 9fc5 e13b 1652 d03d 1587 a7bd
00000070: a36c b43c fbc0 0b3d 8d93 d13d 2f41 b93d
00000080: 4348 1ebc 38e8 973d e21a 393d 9fa8 c4bc
00000090: 7cc8 b839 eb9f 60bd 7e4d 393a ebaf 713d
000000a0: ceee 9b3d 498e ba3d b1c7 60bd 7a89 50bc
000000b0: b656 373d 163e a53d 6cb8 b23d d729 7fbd
000000c0: e5f5 e93d f6ef 633d 7e99 6dbc 0ff9 04be
000000d0: 0832 81bd 73ab eb3c 1dd5 b73c 22e4 d3bd
000000e0: 4d10 c63d 2442 a4bc 84c4 9f3d 47a7 8cbc
000000f0: 24aa e7bd 5731 e1bc aa3e b93d b0ec 653d
00000100: 8dee dd3d 4131 fd3d 3c02 83bc 711d 15bd
00000110: a615 1e3e 8d22 b93c 4e17 fdba 2c0b 91bb
00000120: 170e 263d 903f 203d 1ad9 963d 7296 463b
00000130: faea f2bb f98e e2bd 20a0 113d 1a53 7fbd
00000140: 56cb e4bb e39c 2bbd a2aa 073c 2850 5bbd
00000150: bb60 c4bb e16c 243e e178 ca3c 51a5 af3a
00000160: 2c7e bf3c c6a3 363d 2f79 1f3d a5bc 11bc
00000170: b1f3 6b3d 6039 093e daa7 7ebd c185 c7bd
00000180: 8dfd 82bd 7b6f 8abd 38e8 ccbb 2528 b7bc
00000190: b69b abbd 879b 14bd aea5 90bd 2344 ad3d
000001a0: a831 7bbd 3de8 543c 59ba 2abd 0db8 d93b
000001b0: 1fe7 ddbd ac85 a63c 3e4c d4bd 9cf1 cebc
000001c0: 31d9 c33d 2ccb 4cbd 5957 003b 1e8c 3abd
000001d0: 0acc 5dbc 5bc7 99bd d429 e2bc f9e6 4e3c
000001e0: 6234 8a3d df1b 553d e89a 2abb 42f7 963c
000001f0: 6de4 31b9 124e 1b3b eb92 ae3c 4f4f 1e3c

fc3.weight f4 [1, 128]
0.05360126 -0.058117915 0.07624649 -0.08728046 -0.06695528 -0.058148976 -0.17697601 0.05633653
-0.13634235 0.0017276644 -0.07625862 -0.14268334 0.042548373 0.03864267 -0.121973455 0.110486045
-0.09799492 0.042574648 0.074623056 0.054635197 -0.12975901 -0.22904652 0.04340184 0.08583237
-0.09128929 -0.10890409 0.117460996 -0.13660166 -0.13219897 0.05100089 0.053605795 0.063217305
-0.25116253 0.05187222 0.1298875 0.09612268 -0.06710606 -0.17905135 -0.30865157 -0.11958743
0.06341925 0.08078495 -0.05940873 0.04868279 0.059500076 0.15430509 0.032437313 -0.08104285
0.06197936 0.07396676 0.036636956 -0.06977364 -0.07158902 0.09804993 0.070323884 -0.020225849
0.09488542 -0.092306964 0.05223546 -0.04460405 -0.052284956 -0.15834372 0.08195534 0.048157837
0.027043087 0.08523848 -0.09230316 -0.059270874 0.078754485 -0.10373956 -0.079388134 0.10140232
-0.10433628 0.014424973 0.048549734 -0.15608919 -0.057099838 -0.15900117 0.095797785 -0.07316306
-0.0437608 -0.089231476 0.12375379 -0.07198442 0.18827406 0.070741646 0.20111273 -0.07511804
-0.16373836 -0.066836245 -0.042732373 -0.092154734 0.031063143 0.08269772 -0.0860122 -0.06469974
-0.20165668 -0.08319304 -0.076062635 0.029873239 -0.16207542 -0.13621655 -0.07281999 0.06305337
-0.17668429 0.046079077 -0.10130671 0.04648529 -0.07817328 -0.17466612 -0.14404255 -0.08044405
0.1595569 -0.1546854 -0.062880985 -0.14840174 -0.09737251 -0.056986474 -0.05533785 0.047891933
0.055965703 0.0682693 -0.11034794 0.11632024 0.142493 0.09384557 0.12438802 -0.050762706
00000000: ff8c 5b3d 0d0d 6ebd 1f27 9c3d 19c0 b2bd
00000010: da1f 89bd 9f2d 6ebd 3339 35be 22c1 663d
00000020: 549d 0bbe cc72 e23a 7b2d 9cbd 951b 12be
00000030: 3447 2e3d c747 1e3d 38cd f9bd 8246 e23d
00000040: 90b1 c8bd c162 2e3d f9d3 983d 28c9 5f3d
00000050: 8cdf 04be 2c8b 6abe 21c6 313d e2c8 af3d
00000060: e1f5 babd 1c09 dfbd 648f f03d 4ee1 0bbe
00000070: 2b5f 07be 4fe6 503d c091 5b3d 1378 813d
00000080: 6098 80be f777 543d 3b01 053e f8db c43d
00000090: e76e 89bd 3d59 37be 9407 9ebe 41ea f4bd
000000a0: f4e1 813d 9472 a53d 9256 73bd 9b67 473d
000000b0: 5ab6 733d 2702 1e3e fddc 043d cbf9 a5bd
000000c0: 12de 7d3d e27b 973d a210 163d 7be5 8ebd
000000d0: 449d 92bd 67ce c83d f805 903d aeb0 a5bc
000000e0: 4953 c23d 6f0b bdbd daf4 553d bdb2 36bd
000000f0: c028 56bd db24 22be 34d8 a73d 2741 453d
00000100: 7789 dd3c 8391 ae3d 7009 bdbd 04c6 72bd
00000110: 084a a13d 6875 d4bd 3f96 a2bd 05ac cf3d
00000120: 42ae d5bd b956 6c3c 16dc 463d d8d5 1fbe
00000130: 85e1 69bd 34d1 22be a131 c43d 84d6 95bd
00000140: 863e 33bd febe b6bd a172 fd3d 916c 93bd
00000150: eaca 403e ffe0 903d 7ff0 4d3e 7dd7 99bd
00000160: 07ab 27be 71e1 88bd 2408 2fbd 9fbb bcbd
00000170: 2278 fe3c 6c5d a93d 2a27 b0bd 4c81 84bd
00000180: 177f 4ebe 1d61 aabd bac6 9bbd b9b8 f43c
00000190: 19f7 25be 5a7c 0bbe a622 95bd 2022 813d
000001a0: baec 34be 6abd 3c3d e479 cfbd 5c67 3e3d
000001b0: 5019 a0bd addb 32be e47f 13be dabf a4bd
000001c0: e262 233e d965 1ebe bfc7 80bd a0f6 17be
000001d0: 3d6b c7bd a66a 69bd f1a9 62bd 552a 443d
000001e0: 4b3c 653d c6d0 8b3d 1afe e1bd 4e39 ee3d
000001f0: afe9 113e 1b32 c03d 25bf fe3d 8eec 4fbd
